data.pth (torch, 5279 bytes, 6 tensors)

l1.weight f4 [8, 54]
000000 bf c8 08 3f 5b a3 b5 3e f5 bb 2e be 78 d6 37 be
       0.53431314 0.35476193 -0.17063887 -0.17952907
000010 74 e1 e9 be 3b 63 12 3f c6 1a 4f be 36 67 38 be
       -0.4567982 0.57182664 -0.20225057 -0.18008122
000020 21 66 d3 3c e4 c1 b7 be bf 2e a1 be 27 e5 c0 3e
       0.025805535 -0.35890114 -0.31480977 0.3767483
000030 a8 e4 ba bc c2 50 08 3f 14 cc 10 3e cc c4 0a 3f
       -0.02281411 0.53248227 0.1414035 0.5420654
000040 47 42 35 be e0 45 11 3f 2d b3 27 be 4b 21 06 bf
       -0.17701064 0.56747246 -0.16376944 -0.5239455
000050 b9 2a 22 3f 04 d9 03 bf f3 9d 03 bf f7 9d 06 3e
       0.6334644 -0.51503015 -0.51412886 0.13146196
000060 21 35 98 3e 6c 4f 6b be 51 aa 30 be 92 7e 9d 3e
       0.29728034 -0.22979516 -0.1725247 0.30760628
000070 c0 b1 d1 3c 4e a4 60 3e ad 1d c3 3e 7b 1d 1a 3f
       0.025597453 0.21937677 0.38108578 0.60201234
000080 e5 f8 1f 3e 08 5f 91 be 82 e4 94 3e 8f b1 01 3f
       0.1562229 -0.28392816 0.29080588 0.5066156
000090 72 82 9e bd 29 8a 3d be d0 51 82 be 86 80 5e be
       -0.07739724 -0.18509735 -0.25453043 -0.21728715
0000a0 07 66 95 3e e8 b8 4f be 1e 1a cd 3e 90 6d 23 3e
       0.29179403 -0.2028538 0.40058988 0.15959764
0000b0 1c 91 b9 3e aa aa a8 3e 92 3c 7e 3f fd 6f 30 3f
       0.36243522 0.32942706 0.9931117 0.6892088
0000c0 51 b9 f8 bd b8 5b b3 be 86 e6 fb 3e 1c e2 5e be
       -0.12144721 -0.35030913 0.49199313 -0.21765941
0000d0 f8 9f 1d be 6e d8 39 3d 15 97 8d 3e 02 21 01 3f
       -0.15393054 0.04537242 0.2765433 0.5044099
0000e0 4b 80 0e 3f 68 05 e4 3e 45 d1 07 3f 3b 22 a9 be
       0.5566451 0.44535375 0.53053695 -0.33033928
0000f0 37 10 d2 3e 4d fa c3 3e 4c 9a af 3e 3c 6c ba 3e
       0.41027996 0.38276902 0.34297407 0.364107
000100 00 04 f3 3e b3 9e 43 be 7f b5 a8 3d 09 f0 a9 be
       0.4746399 -0.19103508 0.08237743 -0.33190945
000110 0c 4b c2 3e 45 1d 87 bd 7c f4 d1 3e 10 93 ab be
       0.3794788 -0.065973796 0.4100684 -0.33510637
000120 44 74 0c be 95 d6 38 3f 8b 35 06 3f 9d eb 3d 3f
       -0.13716227 0.72202426 0.5242545 0.7418764
000130 62 7c 48 3f db fa ab bc b0 90 b1 bd 62 8b ad 3e
       0.78314793 -0.02099364 -0.08670175 0.33895403
000140 6e fa c2 be 01 09 0f 3f 27 c0 4b 3d 03 c9 fb 3e
       -0.38081688 0.55873114 0.049743798 0.49176797
000150 0a e3 71 be 8c 52 bc be a0 1b 31 be 0d 4d 22 3f
       -0.23621765 -0.36781728 -0.17295694 0.6339882
000160 8f 8b 20 3f 2c 7f 85 bc 5c 27 52 bd a0 84 ed 3e
       0.6271295 -0.016295992 -0.051307067 0.46390247
000170 3d 28 eb 3e d7 ad 19 3f 98 a6 b1 be 3c b3 bc be
       0.45929137 0.60030884 -0.34697413 -0.36855495
000180 34 ed 30 be a3 fa a2 3e e4 34 c9 3e 27 de 27 3f
       -0.17277986 0.31831846 0.39298165 0.6557335
000190 25 96 00 3f b9 31 04 3f 69 b5 dd 3d 93 f7 bf be
       0.502291 0.5163837 0.10825617 -0.37493572
0001a0 ef 1c 3d bd c1 1d 3a be 63 31 c0 3e c6 a4 ac 3e
       -0.04617017 -0.18175413 0.3753768 0.33719462
0001b0 91 20 ad 3c ad a9 83 bb d2 6a b7 3e df db 0b 3f
       0.021133693 -0.0040180297 0.35823685 0.5463237
0001c0 01 81 23 3f 3f 19 e9 bd 80 c8 ac 3e 86 9c b5 3e
       0.6386872 -0.113817684 0.3374672 0.3547098
0001d0 34 ac 2d 3e 30 7c e0 3e 14 dc 19 3f ca 37 99 3e
       0.16960222 0.43844748 0.6010144 0.29925376
0001e0 b4 e4 7e 3e 11 1c 2b 3e 33 98 bc bd c9 48 73 3e
       0.24891931 0.16709925 -0.09208717 0.23758234
0001f0 19 df 06 3f 10 35 33 be 28 ab 2b bd 73 b4 43 3f
       0.5268417 -0.1750071 -0.041911274 0.7644722
000200 7a 2e 21 bd e0 04 26 3f 84 97 35 3f 01 dc 22 3f
       -0.039350964 0.6485119 0.7093432 0.6361695
000210 59 95 02 3f 7e 79 e2 3e ce c3 26 be 95 3d 4c be
       0.51009136 0.44233316 -0.16285631 -0.19945367
000220 1c 44 5a be 38 2c 23 be fb 2d ef bd d9 0f 4c 3e
       -0.21315044 -0.15934837 -0.11678692 0.1992792
000230 98 d0 92 3e 7e 2d cf 3e be de d8 bd ef 20 93 3e
       0.2867477 0.40464395 -0.1058936 0.28736064
000240 ef 28 2c bc 72 da 19 3e 3c 7c 64 3e 9a 39 8e 3e
       -0.010507806 0.15024737 0.22313017 0.27778322
000250 60 97 1b 3d 10 a1 20 be 1f 91 12 3e 03 bd 17 bd
       0.03798616 -0.1568644 0.14313172 -0.03704549
000260 db 6f a2 3e 63 0a db 3d 96 2a 6d 3c 58 6f 75 bd
       0.31725964 0.106953405 0.014475485 -0.05992064
000270 ac 8c 01 3f 44 55 89 be 56 29 83 3e b5 94 9c bc
       0.50605273 -0.26822865 0.25617474 -0.019113878
000280 42 08 cc 3e 32 f1 8e 3e 41 cd 8b bd fa 51 1d 3f
       0.3985005 0.27918392 -0.068262585 0.6145321
000290 45 cd 53 3f 5d bf 7b bd 9c 4f f0 3d 83 1c a8 be
       0.8273509 -0.061461795 0.11733934 -0.32834253
0002a0 c9 9f 14 3f 7a d9 2d 3f d0 ad 28 3f b8 82 33 3f
       0.5805631 0.6790997 0.65890217 0.70121336
0002b0 4c 68 22 bd f3 1b 58 3c e0 59 92 3e 97 f8 0b 3e
       -0.039650247 0.013190257 0.28584194 0.13669048
0002c0 fb a1 1b 3f cb 54 0a bd a5 db 93 be ec 0c a8 be
       0.6079404 -0.03377227 -0.28878513 -0.3282236
0002d0 f1 7f 56 be da 30 a8 be 26 11 09 3e f8 1e a8 be
       -0.20947243 -0.3284977 0.13385448 -0.32836127
0002e0 4f 28 a8 be a0 c1 1b bf dd 4c ee 3e bc b5 bb bd
       -0.32843253 -0.60842323 0.46543017 -0.091655225
0002f0 27 0b 85 be ff 55 4a 3f a4 4b 32 bd 86 8d e5 3e
       -0.2598507 0.7903747 -0.043529168 0.44834536
000300 eb 65 74 be 23 2f 6c 3e 21 d7 78 be 30 f4 4f 3f
       -0.23867004 0.23064856 -0.24300815 0.81231976
000310 90 00 27 3f 94 16 03 be 74 63 f5 3d c3 f4 20 3f
       0.65235233 -0.12801582 0.1198186 0.62873477
000320 45 55 05 3f 2e d3 1e 3f 5c a7 da be cb 70 b6 be
       0.52083236 0.62040985 -0.4270581 -0.3563293
000330 7b d5 2f 3e 55 98 c4 3e ba 07 05 3f 98 13 42 3f
       0.1717128 0.3839747 0.51964915 0.7581115
000340 de 50 f1 3a 29 9d a7 3e 01 f2 33 be 2f 7b 78 be
       0.0018410941 0.3273709 -0.17572786 -0.24265741
000350 c7 99 67 bd 25 29 db bd b7 20 12 3f 94 f6 ac 3e
       -0.056543138 -0.10701207 0.5708117 0.33781874
000360 4a c8 c9 3e 2c 03 d8 3c 7a cd 7c 3f cd 7f 70 be
       0.3941062 0.0263687 0.9875103 -0.23486252
000370 36 d6 38 be 3d 8d 3b 3f 56 c1 92 3e 32 36 90 3f
       -0.18050465 0.7326239 0.2866313 1.1266539
000380 da ab 53 3f 16 77 7f 3f 15 fd 3f be 9e fd e6 bd
       0.826841 0.99791086 -0.18748887 -0.112788424
000390 42 20 c3 be 4b b9 cb bd 71 a8 36 be 0b 90 e3 bd
       -0.38110548 -0.09947451 -0.17837693 -0.111114584
0003a0 f7 19 cd be ee 28 21 3f 73 f4 ab be ca ae 12 bf
       -0.40058872 0.6295308 -0.33584937 -0.57297957
0003b0 e0 0e c3 3e f2 e1 12 bf e7 1e 13 bf 1e 94 0a bf
       0.38097286 -0.57376015 -0.5746903 -0.5413226
0003c0 55 9f a4 3e fd 54 e4 bd 30 f4 af bb e4 11 ad be
       0.3215281 -0.11149023 -0.0053696856 -0.33802712
0003d0 e9 d8 65 3d 54 bc 84 be 79 58 02 3f a5 9a 06 be
       0.056115065 -0.25924933 0.5091625 -0.1314493
0003e0 26 7e 8b bd 57 51 53 3f 6a 7b 06 be b5 bb da bd
       -0.0681117 0.8254599 -0.13133016 -0.106803335
0003f0 e5 4f ed 3b 29 a9 66 3f 60 cb c3 3e 42 2e dc 3e
       0.00724219 0.9010187 0.382411 0.43004042

l1.bias f4 [8]
000000 16 e0 07 3f 2c 26 00 3f a8 73 87 3f f1 1d a8 3e
       0.53076303 0.50058246 1.058217 0.32835343
000010 68 8b 16 3f 5b a3 1f 3f 56 64 96 3e 15 94 2a 3e
       0.5880647 0.62358636 0.29373425 0.16658051

l2.weight f4 [8, 8]
000000 01 8b 06 be a2 d1 82 be 00 a6 6f 3b 30 79 07 bd
       -0.13138963 -0.25550562 0.003656745 -0.033074558
000010 82 3c 22 3e 30 c6 ba bc 92 c5 9d be 67 76 53 be
       0.15843394 -0.022799581 -0.30814797 -0.20650636
000020 5a 84 77 be bb 8a 42 3f be e1 87 3f 10 5c b2 bd
       -0.24171582 0.75992936 1.0615766 -0.08708966
000030 cc 10 1a 3f d9 c7 a5 be 75 6d 46 bf 91 0a 42 bf
       0.6018188 -0.32379034 -0.7751077 -0.75797373
000040 1c 5e 50 bf 02 f9 91 3e f9 77 c7 3f 3c 38 b1 bc
       -0.813936 0.2851029 1.5583488 -0.02163326
000050 15 38 c1 be 1d b7 ea 3f 83 ba 41 bf 23 6e e5 3d
       -0.377381 1.8337132 -0.7567522 0.112026475
000060 be 94 95 be 63 67 cb 3f f7 b4 70 3f 2b 4a 97 3f
       -0.29215044 1.5890926 0.9402613 1.1819509
000070 86 62 b2 be 0c 51 3b bf 13 d9 21 3f 45 8e 50 3e
       -0.34840792 -0.7317054 0.63221854 0.20366772
000080 1a aa 98 3d fe 4d df bc 1e 46 45 3d 10 a0 c6 bd
       0.07454319 -0.02725887 0.048162572 -0.09698498
000090 2c 01 10 3e d9 02 47 3c 30 33 56 3d 58 e7 0d be
       0.14062947 0.012146675 0.05229491 -0.13857782
0000a0 d3 67 06 3f fa 56 8d 3f 4d 00 1e 3f 4c f0 7d 3f
       0.52502173 1.1042168 0.6171921 0.9919479
0000b0 64 b6 02 bf 3e d1 9d be 52 05 b3 3f ba dc 54 3e
       -0.51059556 -0.30823702 1.3985999 0.20787326
0000c0 e4 8a aa 3f e5 83 b8 3e d4 17 75 bd 5e 16 a6 3f
       1.3323636 0.36038128 -0.059837177 1.2975576
0000d0 e7 16 97 3f 16 33 12 be 7e f4 2b 3f 73 33 43 3e
       1.1803864 -0.142773 0.6716994 0.19062595
0000e0 a9 24 9b 3f 2b 19 28 bc c0 27 48 3f e4 84 7d bf
       1.2120563 -0.010259907 0.78185654 -0.990309
0000f0 37 c8 de 3e 9c 1f 16 3e 16 cb 30 3f af 07 8e bf
       0.43512127 0.14660496 0.69059885 -1.1096095

l2.bias f4 [8]
000000 ec 5d dd bd 80 93 85 3f 8f 1f 0a 3f dd 12 2d 3e
       -0.1080893 1.0435638 0.53954405 0.16901727
000010 78 dc e1 be 62 ae e4 be 41 f9 84 be d3 64 74 3f
       -0.44113517 -0.44664294 -0.25971416 0.95466346

l3.weight f4 [7, 8]
000000 bc 53 82 3d 1a 2d b6 bf ba d1 0e 3e 50 05 4e bf
       0.06363627 -1.4232514 0.13947192 -0.80476856
000010 24 73 84 be 21 07 c5 3e 48 e2 2b bc 84 ab c7 3e
       -0.25869095 0.38482 -0.010490961 0.38998044
000020 c0 89 33 bc 1f 5a c9 bf ed 9b 96 bf 4f 82 3f 3f
       -0.010958135 -1.5730628 -1.1766335 0.7480821
000030 e5 62 4b bd b2 20 08 3f 8c 54 1a 3f 9c d5 a0 bf
       -0.04965486 0.5317489 0.6028526 -1.2565188
000040 e8 7c 0e bd 01 aa 36 3f 08 4a ac 3c 21 d7 b2 bf
       -0.03478709 0.71353155 0.021031395 -1.3971902
000050 f8 4a 53 be 44 fe 00 c0 6d 20 a7 3e d8 62 37 3f
       -0.20634067 -2.0155191 0.32641926 0.716352
000060 50 23 05 3e b1 e1 6b 3f 0c 9f ab 3e 6d 3e 95 3e
       0.13001752 0.9214125 0.3351978 0.2914919
000070 b4 98 36 be 90 4a c1 be 4f 1b d3 bf cd 86 35 bc
       -0.17831689 -0.377522 -1.6492709 -0.011079502
000080 c4 9a b4 bd 5f d0 62 bf f1 23 86 3f d3 3c 81 bf
       -0.08818582 -0.885992 1.0479718 -1.0096687
000090 b4 da d5 bd 34 c2 24 bf 4b f4 95 bf 56 31 62 bf
       -0.10442105 -0.6435883 -1.1715177 -0.8835653
0000a0 c0 98 ce bc 6d ed 96 3e 3c fd 64 bd 70 66 cb 3e
       -0.025219321 0.29478016 -0.055905566 0.3972659
0000b0 80 3b fa 3d c7 e2 06 be 88 7a 9f 3e eb ec ad bf
       0.1221838 -0.13172446 0.3114817 -1.3587927
0000c0 83 de 21 be 30 95 0b be 86 2c cb bf 60 e8 dc 3e
       -0.15807538 -0.1363113 -1.5872962 0.43146038
0000d0 37 44 d7 bd de 0c 72 3e a7 df c6 3e 21 23 3d 3e
       -0.10511058 0.23637721 0.38842508 0.18470432

l3.bias f4 [7]
000000 c5 73 9a be af 29 a2 bd 33 6f 21 3f 9b 91 72 3d
       -0.3016645 -0.07918107 0.630603 0.05922089
000010 76 96 12 3f 93 6a 29 be dd 4f f8 3e
       0.57260835 -0.16544561 0.4849843
